{
    "batch_size": 32,
    "epochs": 10,
    "layers": "Net2(  (fc1): Linear(in_features=3072, out_features=1024, bias=True)  (fc2): Linear(in_features=1024, out_features=512, bias=True)  (d1): Dropout(p=0.4, inplace=False)  (fc3): Linear(in_features=512, out_features=256, bias=True)  (fc4): Linear(in_features=256, out_features=256, bias=True)  (d2): Dropout(p=0.4, inplace=False)  (fc5): Linear(in_features=256, out_features=128, bias=True)  (fc6): Linear(in_features=128, out_features=64, bias=True)  (d3): Dropout(p=0.4, inplace=False)  (fc7): Linear(in_features=64, out_features=32, bias=True)  (fc8): Linear(in_features=32, out_features=16, bias=True)  (d4): Dropout(p=0.4, inplace=False)  (fc9): Linear(in_features=16, out_features=16, bias=True)  (fc10): Linear(in_features=16, out_features=10, bias=True)  (d5): Dropout(p=0.4, inplace=False))",
    "loss": "CrossEntropyLoss",
    "model_class": "Net2",
    "model_type": "Net2",
    "name": "Net2 SGD lr=0.02 momentum=0.9 epochs=10 device=cuda:0 batch_size=32",
    "optimizer": "SGD",
    "optimizer_params": "{'defaults': {'lr': 0.02, 'momentum': 0.9, 'dampening': 0, 'weight_decay': 0, 'nesterov': False, 'm
…
