{
    "batch_size": 10,
    "epochs": 20,
    "layers": "InceptionNet_V1(  (Conv_1): ConvBlock(    (Conv): Conv2d(3, 64, kernel_size=(7, 7), stride=(2, 2), padding=(3, 3))    (Batch_Norm): BatchNorm2d(64, eps=1e-05, momentum=0.1, affine=True, track_running_stats=True)    (Activ_Func): ReLU()  )  (MaxPool_1): MaxPool2d(kernel_size=(3, 3), stride=(2, 2), padding=(0, 0), dilation=1, ceil_mode=True)  (Conv_2): ConvBlock(    (Conv): Conv2d(64, 64, kernel_size=(1, 1), stride=(1, 1))    (Batch_Norm): BatchNorm2d(64, eps=1e-05, momentum=0.1, affine=True, track_running_stats=True)    (Activ_Func): ReLU()  )  (Conv_3): ConvBlock(    (Conv): Conv2d(64, 192, kernel_size=(3, 3), stride=(1, 1), padding=(1, 1))    (Batch_Norm): BatchNorm2d(192, eps=1e-05, momentum=0.1, affine=True, track_running_stats=True)    (Activ_Func): ReLU()  )  (MaxPool_2): MaxPool2d(kernel_size=(3, 3), stride=(2, 2), padding=(0, 0), dilation=1, ceil_mode=True)  (Inception_3a): InceptionBlock(    (Block_1): Sequential(      (0): ConvBlock(        (Conv): Conv2d(192, 64, kernel_size=(1, 1), stride=(1, 1))        (Batch_Norm): BatchNorm2d(64, eps=1e-05, momentum=0.1, affine=True, track_running_stats=True)        (Activ_Func): ReLU()      )    )    (Block_2): Sequential(      (0): ConvBlock(        (Conv): Conv2d(192, 96, kernel_size=(1, 1), stride=(1, 1))        (Batch_Norm): BatchNorm2d(96, eps=1e-05, momentum=0.1, affine=True, track_running_stats=True)        (Activ_Func): ReLU()      )      (1): ConvBlock(        (Conv): Conv2d(96, 128, kernel_size=(3, 3), stride=(1, 1), padding=(1, 1))        (Batch_Norm): BatchNorm2d(128, eps=1e-05, momentum=0.1, affine=True, track_running_stats=True)        (Activ_Func): ReLU()      )    )    (Block_3): Sequential(      (0): ConvBlock(        (Conv): Conv2d(192, 16, kernel_size=(1, 1), stride=(1, 1))        (Batch_Norm): BatchNorm2d(16, eps=1e-05, momentum=0.1, affine=True, track_running_stats=True)        (Activ_Func): ReLU()      )      (1): ConvBlock(        (Conv): Conv2d(16, 32, kernel_size=(5, 5), stride=(1, 1), padding=(2, 2))        (Batch_Norm): BatchNorm2d(32, eps=1e-05, momentum=0.1, affine=True, track_running_stats=True)        (Activ_Func): ReLU()      )    )    (Block_4): Sequential(      (0): MaxPool2d(kernel_size=(3, 3), stride=(1, 1), padding=(1, 1), dilation=1, ceil_mode=False)      (1): ConvBlock(        (Conv): Conv2d(192, 32, kernel_size=(1, 1), stride=(1, 1))        (Batch_Norm): BatchNorm2d(32, eps=1e-05, momentum=0.1, affine=True, track_running_stats=True)        (Activ_Func): ReLU()      )    )  )  (Inception_3b): InceptionBlock(    (Block_1): Sequential(      (0): ConvBlock(        (Conv): Conv2d(256, 128, kernel_size=(1, 1), stride=(1, 1))        (Batch_Norm): BatchNorm2d(128, eps=1e-05, momentum=0.1, affine=True, track_running_stats=True)        (Activ_Func): ReLU()      )    )    (Block_2): Sequential(      (0): ConvBlock(        (Conv): Conv2d(256, 128, kernel_size=(1, 1), stride=(1, 1))        (Batch_Norm): BatchNorm2d(128, eps=1e-05, momentum=0.1, affine=True, track_running_stats=True)        (Activ_Func): ReLU()      )      (1): ConvBlock(        (Conv): Conv2d(128, 192, kernel_size=(3, 3), stride=(1, 1), padding=(1, 1))        (Batch_Norm): BatchNorm2d(192, eps=1e-05, momentum=0.1, affine=True, track_running_stats=True)        (Activ_Func): ReLU()      )    )    (Block_3): Sequential(      (0): ConvBlock(        (Conv): Conv2d(256, 32, kernel_size=(1, 1), stride=(1, 1))        (Batch_Norm): BatchNorm2d(32, eps=1e-05, momentum=0.1, affine=True, track_running_stats=True)        (Activ_Func): ReLU()      )      (1): ConvBlock(        (Conv): Conv2d(32, 96, kernel_size=(5, 5), stride=(1, 1), padding=(2, 2))        (Batch_Norm): BatchNorm2d(96, eps=1e-05, momentum=0.1, affine=True, track_running_stats=True)        (Activ_Func): ReLU()      )    )    (Block_4): Sequential(      (0): MaxPool2d(kernel_size=(3, 3), stride=(1, 1), padding=(1, 1), dilation=1, ceil_mode=False)      (1): ConvBlock(        (Conv): Conv2d(256, 64, kernel_size=(1, 1), stride=(1, 1))        (Batch_Norm): BatchNorm2d(64, eps=1e-05, momentum=0.1, affine=True, track_running_stats=True)        (Activ_Func): ReLU()      )    )  )  (MaxPool_3): MaxPool2d(kernel_size=(3, 3), stride=(2, 2), padding=(0, 0), dilation=1, ceil_mode=True)  (Inception_4a): InceptionBlock(    (Block_1): Sequential(      (0): ConvBlock(        (Conv): Conv2d(480, 192, kernel_size=(1, 1), stride=(1, 1))        (Batch_Norm): BatchNorm2d(192, eps=1e-05, momentum=0.1, affine=True, track_running_stats=True)        (Activ_Func): ReLU()      )    )    (Block_2): Sequential(      (0): ConvBlock(        (Conv): Conv2d(480, 96, kernel_size=(1, 1), stride=(1, 1))        (Batch_Norm): BatchNorm2d(96, eps=1e-05, momentum=0.1, affine=True, track_running_stats=True)        (Activ_Func): ReLU()      )      (1): ConvBlock(        (Conv): Conv2d(96, 208, kernel_size=(3, 3), stride=(1, 1), padding=(1, 1))        (Batch_Norm): BatchNorm2d(208, eps=1e-05, momentum=0.1, affine=True, track_running_stats=True)        (Activ_Func): ReLU()      )    )    (Block_3): Sequential(      (0): ConvBlock(        (Conv): Conv2d(480, 16, kernel_size=(1, 1), stride=(1, 1))        (Batch_Norm): BatchNorm2d(16, eps=1e-05, momentum=0.1, affine=True, track_running_stats=True)        (Activ_Func): ReLU()      )      (1): ConvBlock(        (Conv): Conv2d(16, 48, kernel_size=(5, 5), stride=(1, 1), padding=(2, 2))        (Batch_Norm): BatchNorm2d(48, eps=1e-05, momentum=0.1, affine=True, track_running_stats=True)        (Activ_Func): ReLU()      )    )    (Block_4): Sequential(      (0): MaxPool2d(kernel_size=(3, 3), stride=(1, 1), padding=(1, 1), dilation=1, ceil_mode=False)      (1): ConvBlock(        (Conv): Conv2d(480, 64, kernel_size=(1, 1), stride=(1, 1))        (Batch_Norm): BatchNorm2d(64, eps=1e-05, momentum=0.1, affine=True, track_running_stats=True)        (Activ_Func): ReLU()      )    )  )  (Inception_4b): InceptionBlock(    (Block_1): Sequential(      (0): ConvBlock(        (Conv): Conv2d(512, 160, kernel_size=(1, 1), stride=(1, 1))        (Batch_Norm): BatchNorm2d(160, eps=1e-05, momentum=0.1, affine=True, track_running_stats=True)        (Activ_Func): ReLU()      )    )    (Block_2): Sequential(      (0): ConvBlock(        (Conv): Conv2d(512, 112, kernel_size=(1, 1), stride=(1, 1))        (Batch_Norm): BatchNorm2d(112, eps=1e-05, momentum=0.1, affine=True, track_running_stats=True)        (Activ_Func): ReLU()      )      (1): ConvBlock(        (Conv): Conv2d(112, 224, kernel_size=(3, 3), stride=(1, 1), padding=(1, 1))        (Batch_Norm): BatchNorm2d(224, eps=1e-05, momentum=0.1, affine=True, track_running_stats=True)        (Activ_Func): ReLU()      )    )    (Block_3): Sequential(      (0): ConvBlock(        (Conv): Conv2d(512, 24, kernel_size=(1, 1), stride=(1, 1))        (Batch_Norm): BatchNorm2d(24, eps=1e-05, momentum=0.1, affine=True, track_running_stats=True)        (Activ_Func): ReLU()      )      (1): ConvBlock(        (Conv): Conv2d(24, 64, kernel_size=(5, 5), stride=(1, 1), padding=(2, 2))        (Batch_Norm): BatchNorm2d(64, eps=1e-05, momentum=0.1, affine=True, track_running_stats=True)        (Activ_Func): ReLU()      )    )    (Block_4): Sequential(      (0): MaxPool2d(kernel_size=(3, 3), stride=(1, 1), padding=(1, 1), dilation=1, ceil_mode=False)      (1): ConvBlock(        (Conv): Conv2d(512, 64, kernel_size=(1, 1), stride=(1, 1))        (Batch_Norm): BatchNorm2d(64, eps=1e-05, momentum=0.1, affine=True, track_running_stats=True)        (Activ_Func): ReLU()      )    )  )  (Inception_4c): InceptionBlock(    (Block_1): Sequential(      (0): ConvBlock(        (Conv): Conv2d(512, 128, kernel_size=(1, 1), stride=(1, 1))        (Batch_Norm): BatchNorm2d(128, eps=1e-05, momentum=0.1, affine=True, track_running_stats=True)        (Activ_Func): ReLU()      )    )    (Block_2): Sequential(      (0): ConvBlock(        (Conv): Conv2d(512, 128, kernel_size=(1, 1), stride=(1, 1))        (Batch_Norm): BatchNorm2d(128, eps=1e-05, momentum=0.1, affine=True, track_running_stats=True)        (Activ_Func): ReLU()      )      (1): ConvBlock(        (Conv): Conv2d(128, 256, kernel_size=(3, 3), stride=(1, 1), padding=(1, 1))        (Batch_Norm): BatchNorm2d(256, eps=1e-05, momentum=0.1, affine=True, track_running_stats=True)        (Activ_Func): ReLU()      )    )    (Block_3): Sequential(      (0): ConvBlock(        (Conv): Conv2d(512, 24, kernel_size=(1, 1), stride=(1, 1))        (Batch_Norm): BatchNorm2d(24, eps=1e-05, momentum=0.1, affine=True, track_running_stats=True)        (Activ_Func): ReLU()      )      (1): ConvBlock(        (Conv): Conv2d(24, 64, kernel_size=(5, 5), stride=(1, 1), padding=(2, 2))        (Batch_Norm): BatchNorm2d(64, eps=1e-05, momentum=0.1, affine=True, track_running_stats=True)        (Activ_Func): ReLU()      )    )    (Block_4): Sequential(      (0): MaxPool2d(kernel_size=(3, 3), stride=(1, 1), padding=(1, 1), dilation=1, ceil_mode=False)      (1): ConvBlock(        (Conv): Conv2d(512, 64, kernel_size=(1, 1), stride=(1, 1))        (Batch_Norm): BatchNorm2d(64, eps=1e-05, momentum=0.1, affine=True, track_running_stats=True)        (Activ_Func): ReLU()      )    )  )  (Inception_4d): InceptionBlock(    (Block_1): Sequential(      (0): ConvBlock(        (Conv): Conv2d(512, 112, kernel_size=(1, 1), stride=(1, 1))        (Batch_Norm): BatchNorm2d(112, eps=1e-05, momentum=0.1, affine=True, track_running_stats=True)        (Activ_Func): ReLU()      )    )    (Block_2): Sequential(      (0): ConvBlock(        (Conv): Conv2d(512, 144, kernel_size=(1, 1), stride=(1, 1))        (Batch_Norm): BatchNorm2d(144, eps=1e-05, momentum=0.1, affine=True, track_running_stats=True)        (Activ_Func): ReLU()      )      (1): ConvBlock(        (Conv): Conv2d(144, 288, kernel_size=(3, 3), stride=(1, 1), padding=(1, 1))        (Batch_Norm): BatchNorm2d(288, eps=1e-05, momentum=0.1, affine=True, track_running_stats=True)        (Activ_Func): ReLU()      )    )    (Block_3): Sequential(      (0): ConvBlock(        (Conv): Conv2d(512, 32, kernel_size=(1, 1), stride=(1, 1))        (Batch_Norm): BatchNorm2d(32, eps=1e-05, momentum=0.1, affine=True, track_running_stats=True)        (Activ_Func): ReLU()      )      (1): ConvBlock(        (Conv): Conv2d(32, 64, kernel_size=(5, 5), stride=(1, 1), padding=(2, 2))        (Batch_Norm): BatchNorm2d(64, eps=1e-05, momentum=0.1, affine=True, track_running_stats=True)        (Activ_Func): ReLU()      )    )    (Block_4): Sequential(      (0): MaxPool2d(kernel_size=(3, 3), stride=(1, 1), padding=(1, 1), dilation=1, ceil_mode=False)      (1): ConvBlock(        (Conv): Conv2d(512, 64, kernel_size=(1, 1), stride=(1, 1))        (Batch_Norm): BatchNorm2d(64, eps=1e-05, momentum=0.1, affine=True, track_running_stats=True)        (Activ_Func): ReLU()      )    )  )  (Inception_4e): InceptionBlock(    (Block_1): Sequential(      (0): ConvBlock(        (Conv): Conv2d(528, 256, kernel_size=(1, 1), stride=(1, 1))        (Batch_Norm): BatchNorm2d(256, eps=1e-05, momentum=0.1, affine=True, track_running_stats=True)        (Activ_Func): ReLU()      )    )    (Block_2): Sequential(      (0): ConvBlock(        (Conv): Conv2d(528, 160, kernel_size=(1, 1), stride=(1, 1))        (Batch_Norm): BatchNorm2d(160, eps=1e-05, momentum=0.1, affine=True, track_running_stats=True)        (Activ_Func): ReLU()      )      (1): ConvBlock(        (Conv): Conv2d(160, 320, kernel_size=(3, 3), stride=(1, 1), padding=(1, 1))        (Batch_Norm): BatchNorm2d(320, eps=1e-05, momentum=0.1, affine=True, track_running_stats=True)        (Activ_Func): ReLU()      )    )    (Block_3): Sequential(      (0): ConvBlock(        (Conv): Conv2d(528, 32, kernel_size=(1, 1), stride=(1, 1))        (Batch_Norm): BatchNorm2d(32, eps=1e-05, momentum=0.1, affine=True, track_running_stats=True)        (Activ_Func): ReLU()      )      (1): ConvBlock(        (Conv): Conv2d(32, 128, kernel_size=(5, 5), stride=(1, 1), padding=(2, 2))        (Batch_Norm): BatchNorm2d(128, eps=1e-05, momentum=0.1, affine=True, track_running_stats=True)        (Activ_Func): ReLU()      )    )    (Block_4): Sequential(      (0): MaxPool2d(kernel_size=(3, 3), stride=(1, 1), padding=(1, 1), dilation=1, ceil_mode=False)      (1): ConvBlock(        (Conv): Conv2d(528, 128, kernel_size=(1, 1), stride=(1, 1))        (Batch_Norm): BatchNorm2d(128, eps=1e-05, momentum=0.1, affine=True, track_running_stats=True)        (Activ_Func): ReLU()      )    )  )  (MaxPool_4): MaxPool2d(kernel_size=(3, 3), stride=(2, 2), padding=(0, 0), dilation=1, ceil_mode=True)  (Inception_5a): InceptionBlock(    (Block_1): Sequential(      (0): ConvBlock(        (Conv): Conv2d(832, 256, kernel_size=(1, 1), stride=(1, 1))        (Batch_Norm): BatchNorm2d(256, eps=1e-05, momentum=0.1, affine=True, track_running_stats=True)        (Activ_Func): ReLU()      )    )    (Block_2): Sequential(      (0): ConvBlock(        (Conv): Conv2d(832, 160, kernel_size=(1, 1), stride=(1, 1))        (Batch_Norm): BatchNorm2d(160, eps=1e-05, momentum=0.1, affine=True, track_running_stats=True)        (Activ_Func): ReLU()      )      (1): ConvBlock(        (Conv): Conv2d(160, 320, kernel_size=(3, 3), stride=(1, 1), padding=(1, 1))        (Batch_Norm): BatchNorm2d(320, eps=1e-05, momentum=0.1, affine=True, track_running_stats=True)        (Activ_Func): ReLU()      )    )    (Block_3): Sequential(      (0): ConvBlock(        (Conv): Conv2d(832, 32, kernel_size=(1, 1), stride=(1, 1))        (Batch_Norm): BatchNorm2d(32, eps=1e-05, momentum=0.1, affine=True, track_running_stats=True)        (Activ_Func): ReLU()      )      (1): ConvBlock(        (Conv): Conv2d(32, 128, kernel_size=(5, 5), stride=(1, 1), padding=(2, 2))        (Batch_Norm): BatchNorm2d(128, eps=1e-05, momentum=0.1, affine=True, track_running_stats=True)        (Activ_Func): ReLU()      )    )    (Block_4): Sequential(      (0): MaxPool2d(kernel_size=(3, 3), stride=(1, 1), padding=(1, 1), dilation=1, ceil_mode=False)      (1): ConvBlock(        (Conv): Conv2d(832, 128, kernel_size=(1, 1), stride=(1, 1))        (Batch_Norm): BatchNorm2d(128, eps=1e-05, momentum=0.1, affine=True, track_running_stats=True)        (Activ_Func): ReLU()      )    )  )  (Inception_5b): InceptionBlock(    (Block_1): Sequential(      (0): ConvBlock(        (Conv): Conv2d(832, 384, kernel_size=(1, 1), stride=(1, 1))        (Batch_Norm): BatchNorm2d(384, eps=1e-05, momentum=0.1, affine=True, track_running_stats=True)        (Activ_Func): ReLU()      )    )    (Block_2): Sequential(      (0): ConvBlock(        (Conv): Conv2d(832, 192, kernel_size=(1, 1), stride=(1, 1))        (Batch_Norm): BatchNorm2d(192, eps=1e-05, momentum=0.1, affine=True, track_running_stats=True)        (Activ_Func): ReLU()      )      (1): ConvBlock(        (Conv): Conv2d(192, 384, kernel_size=(3, 3), stride=(1, 1), padding=(1, 1))        (Batch_Norm): BatchNorm2d(384, eps=1e-05, momentum=0.1, affine=True, track_running_stats=True)        (Activ_Func): ReLU()      )    )    (Block_3): Sequential(      (0): ConvBlock(        (Conv): Conv2d(832, 48, kernel_size=(1, 1), stride=(1, 1))        (Batch_Norm): BatchNorm2d(48, eps=1e-05, momentum=0.1, affine=True, track_running_stats=True)        (Activ_Func): ReLU()      )      (1): ConvBlock(        (Conv): Conv2d(48, 128, kernel_size=(5, 5), stride=(1, 1), padding=(2, 2))        (Batch_Norm): BatchNorm2d(128, eps=1e-05, momentum=0.1, affine=True, track_running_stats=True)        (Activ_Func): ReLU()      )    )    (Block_4): Sequential(      (0): MaxPool2d(kernel_size=(3, 3), stride=(1, 1), padding=(1, 1), dilation=1, ceil_mode=False)      (1): ConvBlock(        (Conv): Conv2d(832, 128, kernel_size=(1, 1), stride=(1, 1))        (Batch_Norm): BatchNorm2d(128, eps=1e-05, momentum=0.1, affine=True, track_running_stats=True)        (Activ_Func): ReLU()      )    )  )  (AvgPool_1): AdaptiveAvgPool2d(output_size=(1, 1))  (DropOut): Dropout(p=0.4, inplace=False)  (FC): Linear(in_features=1024, out_features=10, bias=True)  (Auxiliary_4a): Auxiliary_Classifier(    (Adaptive_AvgPool): AdaptiveAvgPool2d(output_size=(4, 4))    (Conv): Conv2d(512, 128, kernel_size=(1, 1), stride=(1, 1))    (Activ_Func): ReLU()    (FC_1): Linear(in_features=2048, out_features=1024, bias=True)    (DropOut): Dropout(p=0.7, inplace=False)    (FC_2): Linear(in_features=1024, out_features=10, bias=True)  )  (Auxiliary_4d): Auxiliary_Classifier(    (Adaptive_AvgPool): AdaptiveAvgPool2d(output_size=(4, 4))    (Conv): Conv2d(528, 128, kernel_size=(1, 1), stride=(1, 1))    (Activ_Func): ReLU()    (FC_1): Linear(in_features=2048, out_features=1024, bias=True)    (DropOut): Dropout(p=0.7, inplace=False)    (FC_2): Linear(in_features=1024, out_features=10, bias=True)  ))",
    "loss": "CrossEntropyLoss",
    "model_class": "InceptionNet_V1",
    "model_type": "InceptionNet_V1",
    "name": "InceptionNetV1 BatchSize 10 Momentum 0.6 LR 0.005 WeightDecay 0.0005",
    "optimizer": "SGD",
    "optimizer_params": "{'defaults': {'lr': 0.005, 'momentum': 0.6, 'dampening': 0, 'weight_decay': 0.0005, 'nesterov': False, 'maxi
…
