{
    "batch_size": 32,
    "epochs": 10,
    "layers": "Net1(  (fc1): Linear(in_features=3072, out_features=3072, bias=True)  (fc21): Linear(in_features=3072, out_features=1024, bias=True)  (d1): Dropout(p=0.2, inplace=False)  (fc22): Linear(in_features=1024, out_features=800, bias=True)  (d2): Dropout(p=0.2, inplace=False)  (fc23): Linear(in_features=800, out_features=360, bias=True)  (fc24): Linear(in_features=360, out_features=480, bias=True)  (fc25): Linear(in_features=480, out_features=240, bias=True)  (fc26): Linear(in_features=240, out_features=120, bias=True)  (d3): Dropout(p=0.2, inplace=False)  (fc2): Linear(in_features=120, out_features=90, bias=True)  (fc3): Linear(in_features=90, out_features=24, bias=True)  (fc4): Linear(in_features=24, out_features=10, bias=True))",
    "loss": "CrossEntropyLoss",
    "model_class": "Net1",
    "model_type": "Net1",
    "name": "Net1 SGD lr=0.02 momentum=0.9 epochs=10 device=cuda:0 batch_size=32",
    "optimizer": "SGD",
    "optimizer_params": "{'defaults': {'lr': 0.02, 'momentum': 0.9, 'dampening': 0, 'weight_decay': 0, 'nesterov': False, 'maximize': False, 'foreach': None, 'di
…
